Namespace(attention=0, batch_size=100, cuda=True, dataset='_charged10_initvel1charged-10', degree=2, div=1, epochs=10000, exp_name='exp-10-egnn_vel-15', gpu=0, log_interval=1, lr=0.0005, max_training_samples=3000, model='egnn_vel', n_layers=15, nf=64, no_cuda=False, norm_diff=False, outf='n_body_system/logs', seed=1, sweep_training=0, tanh=False, test_interval=5, time_exp=0, weight_decay=1e-12)
EGNN_vel(
  (embedding): Linear(in_features=1, out_features=64, bias=True)
  (gcl_0): E_GCL_vel(
    (edge_mlp): Sequential(
      (0): Linear(in_features=131, out_features=64, bias=True)
      (1): SiLU()
      (2): Linear(in_features=64, out_features=64, bias=True)
      (3): SiLU()
    )
    (node_mlp): Sequential(
      (0): Linear(in_features=128, out_features=64, bias=True)
      (1): SiLU()
      (2): Linear(in_features=64, out_features=64, bias=True)
    )
    (coord_mlp): Sequential(
      (0): Linear(in_features=64, out_features=64, bias=True)
      (1): SiLU()
      (2): Linear(in_features=64, out_features=1, bias=False)
    )
    (coord_mlp_vel): Sequential(
      (0): Linear(in_features=64, out_features=64, bias=True)
      (1): SiLU()
      (2): Linear(in_features=64, out_features=1, bias=True)
    )
  )
  (gcl_1): E_GCL_vel(
    (edge_mlp): Sequential(
      (0): Linear(in_features=131, out_features=64, bias=True)
      (1): SiLU()
      (2): Linear(in_features=64, out_features=64, bias=True)
      (3): SiLU()
    )
    (node_mlp): Sequential(
      (0): Linear(in_features=128, out_features=64, bias=True)
      (1): SiLU()
      (2): Linear(in_features=64, out_features=64, bias=True)
    )
    (coord_mlp): Sequential(
      (0): Linear(in_features=64, out_features=64, bias=True)
      (1): SiLU()
      (2): Linear(in_features=64, out_features=1, bias=False)
    )
    (coord_mlp_vel): Sequential(
      (0): Linear(in_features=64, out_features=64, bias=True)
      (1): SiLU()
      (2): Linear(in_features=64, out_features=1, bias=True)
    )
  )
  (gcl_2): E_GCL_vel(
    (edge_mlp): Sequential(
      (0): Linear(in_features=131, out_features=64, bias=True)
      (1): SiLU()
      (2): Linear(in_features=64, out_features=64, bias=True)
      (3): SiLU()
    )
    (node_mlp): Sequential(
      (0): Linear(in_features=128, out_features=64, bias=True)
      (1): SiLU()
      (2): Linear(in_features=64, out_features=64, bias=True)
    )
    (coord_mlp): Sequential(
      (0): Linear(in_features=64, out_features=64, bias=True)
      (1): SiLU()
      (2): Linear(in_features=64, out_features=1, bias=False)
    )
    (coord_mlp_vel): Sequential(
      (0): Linear(in_features=64, out_features=64, bias=True)
      (1): SiLU()
      (2): Linear(in_features=64, out_features=1, bias=True)
    )
  )
  (gcl_3): E_GCL_vel(
    (edge_mlp): Sequential(
      (0): Linear(in_features=131, out_features=64, bias=True)
      (1): SiLU()
      (2): Linear(in_features=64, out_features=64, bias=True)
      (3): SiLU()
    )
    (node_mlp): Sequential(
      (0): Linear(in_features=128, out_features=64, bias=True)
      (1): SiLU()
      (2): Linear(in_features=64, out_features=64, bias=True)
    )
    (coord_mlp): Sequential(
      (0): Linear(in_features=64, out_features=64, bias=True)
      (1): SiLU()
      (2): Linear(in_features=64, out_features=1, bias=False)
    )
    (coord_mlp_vel): Sequential(
      (0): Linear(in_features=64, out_features=64, bias=True)
      (1): SiLU()
      (2): Linear(in_features=64, out_features=1, bias=True)
    )
  )
  (gcl_4): E_GCL_vel(
    (edge_mlp): Sequential(
      (0): Linear(in_features=131, out_features=64, bias=True)
      (1): SiLU()
      (2): Linear(in_features=64, out_features=64, bias=True)
      (3): SiLU()
    )
    (node_mlp): Sequential(
      (0): Linear(in_features=128, out_features=64, bias=True)
      (1): SiLU()
      (2): Linear(in_features=64, out_features=64, bias=True)
    )
    (coord_mlp): Sequential(
      (0): Linear(in_features=64, out_features=64, bias=True)
      (1): SiLU()
      (2): Linear(in_features=64, out_features=1, bias=False)
    )
    (coord_mlp_vel): Sequential(
      (0): Linear(in_features=64, out_features=64, bias=True)
      (1): SiLU()
      (2): Linear(in_features=64, out_features=1, bias=True)
    )
  )
  (gcl_5): E_GCL_vel(
    (edge_mlp): Sequential(
      (0): Linear(in_features=131, out_features=64, bias=True)
      (1): SiLU()
      (2): Linear(in_features=64, out_features=64, bias=True)
      (3): SiLU()
    )
    (node_mlp): Sequential(
      (0): Linear(in_features=128, out_features=64, bias=True)
      (1): SiLU()
      (2): Linear(in_features=64, out_features=64, bias=True)
    )
    (coord_mlp): Sequential(
      (0): Linear(in_features=64, out_features=64, bias=True)
      (1): SiLU()
      (2): Linear(in_features=64, out_features=1, bias=False)
    )
    (coord_mlp_vel): Sequential(
      (0): Linear(in_features=64, out_features=64, bias=True)
      (1): SiLU()
      (2): Linear(in_features=64, out_features=1, bias=True)
    )
  )
  (gcl_6): E_GCL_vel(
    (edge_mlp): Sequential(
      (0): Linear(in_features=131, out_features=64, bias=True)
      (1): SiLU()
      (2): Linear(in_features=64, out_features=64, bias=True)
      (3): SiLU()
    )
    (node_mlp): Sequential(
      (0): Linear(in_features=128, out_features=64, bias=True)
      (1): SiLU()
      (2): Linear(in_features=64, out_features=64, bias=True)
    )
    (coord_mlp): Sequential(
      (0): Linear(in_features=64, out_features=64, bias=True)
      (1): SiLU()
      (2): Linear(in_features=64, out_features=1, bias=False)
    )
    (coord_mlp_vel): Sequential(
      (0): Linear(in_features=64, out_features=64, bias=True)
      (1): SiLU()
      (2): Linear(in_features=64, out_features=1, bias=True)
    )
  )
  (gcl_7): E_GCL_vel(
    (edge_mlp): Sequential(
      (0): Linear(in_features=131, out_features=64, bias=True)
      (1): SiLU()
      (2): Linear(in_features=64, out_features=64, bias=True)
      (3): SiLU()
    )
    (node_mlp): Sequential(
      (0): Linear(in_features=128, out_features=64, bias=True)
      (1): SiLU()
      (2): Linear(in_features=64, out_features=64, bias=True)
    )
    (coord_mlp): Sequential(
      (0): Linear(in_features=64, out_features=64, bias=True)
      (1): SiLU()
      (2): Linear(in_features=64, out_features=1, bias=False)
    )
    (coord_mlp_vel): Sequential(
      (0): Linear(in_features=64, out_features=64, bias=True)
      (1): SiLU()
      (2): Linear(in_features=64, out_features=1, bias=True)
    )
  )
  (gcl_8): E_GCL_vel(
    (edge_mlp): Sequential(
      (0): Linear(in_features=131, out_features=64, bias=True)
      (1): SiLU()
      (2): Linear(in_features=64, out_features=64, bias=True)
      (3): SiLU()
    )
    (node_mlp): Sequential(
      (0): Linear(in_features=128, out_features=64, bias=True)
      (1): SiLU()
      (2): Linear(in_features=64, out_features=64, bias=True)
    )
    (coord_mlp): Sequential(
      (0): Linear(in_features=64, out_features=64, bias=True)
      (1): SiLU()
      (2): Linear(in_features=64, out_features=1, bias=False)
    )
    (coord_mlp_vel): Sequential(
      (0): Linear(in_features=64, out_features=64, bias=True)
      (1): SiLU()
      (2): Linear(in_features=64, out_features=1, bias=True)
    )
  )
  (gcl_9): E_GCL_vel(
    (edge_mlp): Sequential(
      (0): Linear(in_features=131, out_features=64, bias=True)
      (1): SiLU()
      (2): Linear(in_features=64, out_features=64, bias=True)
      (3): SiLU()
    )
    (node_mlp): Sequential(
      (0): Linear(in_features=128, out_features=64, bias=True)
      (1): SiLU()
      (2): Linear(in_features=64, out_features=64, bias=True)
    )
    (coord_mlp): Sequential(
      (0): Linear(in_features=64, out_features=64, bias=True)
      (1): SiLU()
      (2): Linear(in_features=64, out_features=1, bias=False)
    )
    (coord_mlp_vel): Sequential(
      (0): Linear(in_features=64, out_features=64, bias=True)
      (1): SiLU()
      (2): Linear(in_features=64, out_features=1, bias=True)
    )
  )
  (gcl_10): E_GCL_vel(
    (edge_mlp): Sequential(
      (0): Linear(in_features=131, out_features=64, bias=True)
      (1): SiLU()
      (2): Linear(in_features=64, out_features=64, bias=True)
      (3): SiLU()
    )
    (node_mlp): Sequential(
      (0): Linear(in_features=128, out_features=64, bias=True)
      (1): SiLU()
      (2): Linear(in_features=64, out_features=64, bias=True)
    )
    (coord_mlp): Sequential(
      (0): Linear(in_features=64, out_features=64, bias=True)
      (1): SiLU()
      (2): Linear(in_features=64, out_features=1, bias=False)
    )
    (coord_mlp_vel): Sequential(
      (0): Linear(in_features=64, out_features=64, bias=True)
      (1): SiLU()
      (2): Linear(in_features=64, out_features=1, bias=True)
    )
  )
  (gcl_11): E_GCL_vel(
    (edge_mlp): Sequential(
      (0): Linear(in_features=131, out_features=64, bias=True)
      (1): SiLU()
      (2): Linear(in_features=64, out_features=64, bias=True)
      (3): SiLU()
    )
    (node_mlp): Sequential(
      (0): Linear(in_features=128, out_features=64, bias=True)
      (1): SiLU()
      (2): Linear(in_features=64, out_features=64, bias=True)
    )
    (coord_mlp): Sequential(
      (0): Linear(in_features=64, out_features=64, bias=True)
      (1): SiLU()
      (2): Linear(in_features=64, out_features=1, bias=False)
    )
    (coord_mlp_vel): Sequential(
      (0): Linear(in_features=64, out_features=64, bias=True)
      (1): SiLU()
      (2): Linear(in_features=64, out_features=1, bias=True)
    )
  )
  (gcl_12): E_GCL_vel(
    (edge_mlp): Sequential(
      (0): Linear(in_features=131, out_features=64, bias=True)
      (1): SiLU()
      (2): Linear(in_features=64, out_features=64, bias=True)
      (3): SiLU()
    )
    (node_mlp): Sequential(
      (0): Linear(in_features=128, out_features=64, bias=True)
      (1): SiLU()
      (2): Linear(in_features=64, out_features=64, bias=True)
    )
    (coord_mlp): Sequential(
      (0): Linear(in_features=64, out_features=64, bias=True)
      (1): SiLU()
      (2): Linear(in_features=64, out_features=1, bias=False)
    )
    (coord_mlp_vel): Sequential(
      (0): Linear(in_features=64, out_features=64, bias=True)
      (1): SiLU()
      (2): Linear(in_features=64, out_features=1, bias=True)
    )
  )
  (gcl_13): E_GCL_vel(
    (edge_mlp): Sequential(
      (0): Linear(in_features=131, out_features=64, bias=True)
      (1): SiLU()
      (2): Linear(in_features=64, out_features=64, bias=True)
      (3): SiLU()
    )
    (node_mlp): Sequential(
      (0): Linear(in_features=128, out_features=64, bias=True)
      (1): SiLU()
      (2): Linear(in_features=64, out_features=64, bias=True)
    )
    (coord_mlp): Sequential(
      (0): Linear(in_features=64, out_features=64, bias=True)
      (1): SiLU()
      (2): Linear(in_features=64, out_features=1, bias=False)
    )
    (coord_mlp_vel): Sequential(
      (0): Linear(in_features=64, out_features=64, bias=True)
      (1): SiLU()
      (2): Linear(in_features=64, out_features=1, bias=True)
    )
  )
  (gcl_14): E_GCL_vel(
    (edge_mlp): Sequential(
      (0): Linear(in_features=131, out_features=64, bias=True)
      (1): SiLU()
      (2): Linear(in_features=64, out_features=64, bias=True)
      (3): SiLU()
    )
    (node_mlp): Sequential(
      (0): Linear(in_features=128, out_features=64, bias=True)
      (1): SiLU()
      (2): Linear(in_features=64, out_features=64, bias=True)
    )
    (coord_mlp): Sequential(
      (0): Linear(in_features=64, out_features=64, bias=True)
      (1): SiLU()
      (2): Linear(in_features=64, out_features=1, bias=False)
    )
    (coord_mlp_vel): Sequential(
      (0): Linear(in_features=64, out_features=64, bias=True)
      (1): SiLU()
      (2): Linear(in_features=64, out_features=1, bias=True)
    )
  )
)
train epoch 0 avg loss: 2919956422678310.50000
==> val epoch 0 avg loss: 45343796197612478464.00000
==> test epoch 0 avg loss: 39.81399
*** Best Val Loss: 100000000.00000 	 Best Test Loss: 100000000.00000 	 Best epoch 0
train epoch 1 avg loss: 743082236362860053659648.00000
train epoch 2 avg loss: 1008952968146377041248256.00000
train epoch 3 avg loss: 1544817451952110953299968.00000
…
