Namespace(attention=0, batch_size=100, cuda=True, dataset='_charged20_initvel1charged-20', degree=2, div=1, epochs=10000, exp_name='exp-20-egnn_vel-12', gpu=3, log_interval=1, lr=0.0005, max_training_samples=3000, model='egnn_vel', n_layers=12, nf=64, no_cuda=False, norm_diff=False, outf='n_body_system/logs', seed=1, sweep_training=0, tanh=False, test_interval=5, time_exp=0, weight_decay=1e-12)
EGNN_vel(
  (embedding): Linear(in_features=1, out_features=64, bias=True)
  (gcl_0): E_GCL_vel(
    (edge_mlp): Sequential(
      (0): Linear(in_features=131, out_features=64, bias=True)
      (1): SiLU()
      (2): Linear(in_features=64, out_features=64, bias=True)
      (3): SiLU()
    )
    (node_mlp): Sequential(
      (0): Linear(in_features=128, out_features=64, bias=True)
      (1): SiLU()
      (2): Linear(in_features=64, out_features=64, bias=True)
    )
    (coord_mlp): Sequential(
      (0): Linear(in_features=64, out_features=64, bias=True)
      (1): SiLU()
      (2): Linear(in_features=64, out_features=1, bias=False)
    )
    (coord_mlp_vel): Sequential(
      (0): Linear(in_features=64, out_features=64, bias=True)
      (1): SiLU()
      (2): Linear(in_features=64, out_features=1, bias=True)
    )
  )
  (gcl_1): E_GCL_vel(
    (edge_mlp): Sequential(
      (0): Linear(in_features=131, out_features=64, bias=True)
      (1): SiLU()
      (2): Linear(in_features=64, out_features=64, bias=True)
      (3): SiLU()
    )
    (node_mlp): Sequential(
      (0): Linear(in_features=128, out_features=64, bias=True)
      (1): SiLU()
      (2): Linear(in_features=64, out_features=64, bias=True)
    )
    (coord_mlp): Sequential(
      (0): Linear(in_features=64, out_features=64, bias=True)
      (1): SiLU()
      (2): Linear(in_features=64, out_features=1, bias=False)
    )
    (coord_mlp_vel): Sequential(
      (0): Linear(in_features=64, out_features=64, bias=True)
      (1): SiLU()
      (2): Linear(in_features=64, out_features=1, bias=True)
    )
  )
  (gcl_2): E_GCL_vel(
    (edge_mlp): Sequential(
      (0): Linear(in_features=131, out_features=64, bias=True)
      (1): SiLU()
      (2): Linear(in_features=64, out_features=64, bias=True)
      (3): SiLU()
    )
    (node_mlp): Sequential(
      (0): Linear(in_features=128, out_features=64, bias=True)
      (1): SiLU()
      (2): Linear(in_features=64, out_features=64, bias=True)
    )
    (coord_mlp): Sequential(
      (0): Linear(in_features=64, out_features=64, bias=True)
      (1): SiLU()
      (2): Linear(in_features=64, out_features=1, bias=False)
    )
    (coord_mlp_vel): Sequential(
      (0): Linear(in_features=64, out_features=64, bias=True)
      (1): SiLU()
      (2): Linear(in_features=64, out_features=1, bias=True)
    )
  )
  (gcl_3): E_GCL_vel(
    (edge_mlp): Sequential(
      (0): Linear(in_features=131, out_features=64, bias=True)
      (1): SiLU()
      (2): Linear(in_features=64, out_features=64, bias=True)
      (3): SiLU()
    )
    (node_mlp): Sequential(
      (0): Linear(in_features=128, out_features=64, bias=True)
      (1): SiLU()
      (2): Linear(in_features=64, out_features=64, bias=True)
    )
    (coord_mlp): Sequential(
      (0): Linear(in_features=64, out_features=64, bias=True)
      (1): SiLU()
      (2): Linear(in_features=64, out_features=1, bias=False)
    )
    (coord_mlp_vel): Sequential(
      (0): Linear(in_features=64, out_features=64, bias=True)
      (1): SiLU()
      (2): Linear(in_features=64, out_features=1, bias=True)
    )
  )
  (gcl_4): E_GCL_vel(
    (edge_mlp): Sequential(
      (0): Linear(in_features=131, out_features=64, bias=True)
      (1): SiLU()
      (2): Linear(in_features=64, out_features=64, bias=True)
      (3): SiLU()
    )
    (node_mlp): Sequential(
      (0): Linear(in_features=128, out_features=64, bias=True)
      (1): SiLU()
      (2): Linear(in_features=64, out_features=64, bias=True)
    )
    (coord_mlp): Sequential(
      (0): Linear(in_features=64, out_features=64, bias=True)
      (1): SiLU()
      (2): Linear(in_features=64, out_features=1, bias=False)
    )
    (coord_mlp_vel): Sequential(
      (0): Linear(in_features=64, out_features=64, bias=True)
      (1): SiLU()
      (2): Linear(in_features=64, out_features=1, bias=True)
    )
  )
  (gcl_5): E_GCL_vel(
    (edge_mlp): Sequential(
      (0): Linear(in_features=131, out_features=64, bias=True)
      (1): SiLU()
      (2): Linear(in_features=64, out_features=64, bias=True)
      (3): SiLU()
    )
    (node_mlp): Sequential(
      (0): Linear(in_features=128, out_features=64, bias=True)
      (1): SiLU()
      (2): Linear(in_features=64, out_features=64, bias=True)
    )
    (coord_mlp): Sequential(
      (0): Linear(in_features=64, out_features=64, bias=True)
      (1): SiLU()
      (2): Linear(in_features=64, out_features=1, bias=False)
    )
    (coord_mlp_vel): Sequential(
      (0): Linear(in_features=64, out_features=64, bias=True)
      (1): SiLU()
      (2): Linear(in_features=64, out_features=1, bias=True)
    )
  )
  (gcl_6): E_GCL_vel(
    (edge_mlp): Sequential(
      (0): Linear(in_features=131, out_features=64, bias=True)
      (1): SiLU()
      (2): Linear(in_features=64, out_features=64, bias=True)
      (3): SiLU()
    )
    (node_mlp): Sequential(
      (0): Linear(in_features=128, out_features=64, bias=True)
      (1): SiLU()
      (2): Linear(in_features=64, out_features=64, bias=True)
    )
    (coord_mlp): Sequential(
      (0): Linear(in_features=64, out_features=64, bias=True)
      (1): SiLU()
      (2): Linear(in_features=64, out_features=1, bias=False)
    )
    (coord_mlp_vel): Sequential(
      (0): Linear(in_features=64, out_features=64, bias=True)
      (1): SiLU()
      (2): Linear(in_features=64, out_features=1, bias=True)
    )
  )
  (gcl_7): E_GCL_vel(
    (edge_mlp): Sequential(
      (0): Linear(in_features=131, out_features=64, bias=True)
      (1): SiLU()
      (2): Linear(in_features=64, out_features=64, bias=True)
      (3): SiLU()
    )
    (node_mlp): Sequential(
      (0): Linear(in_features=128, out_features=64, bias=True)
      (1): SiLU()
      (2): Linear(in_features=64, out_features=64, bias=True)
    )
    (coord_mlp): Sequential(
      (0): Linear(in_features=64, out_features=64, bias=True)
      (1): SiLU()
      (2): Linear(in_features=64, out_features=1, bias=False)
    )
    (coord_mlp_vel): Sequential(
      (0): Linear(in_features=64, out_features=64, bias=True)
      (1): SiLU()
      (2): Linear(in_features=64, out_features=1, bias=True)
    )
  )
  (gcl_8): E_GCL_vel(
    (edge_mlp): Sequential(
      (0): Linear(in_features=131, out_features=64, bias=True)
      (1): SiLU()
      (2): Linear(in_features=64, out_features=64, bias=True)
      (3): SiLU()
    )
    (node_mlp): Sequential(
      (0): Linear(in_features=128, out_features=64, bias=True)
      (1): SiLU()
      (2): Linear(in_features=64, out_features=64, bias=True)
    )
    (coord_mlp): Sequential(
      (0): Linear(in_features=64, out_features=64, bias=True)
      (1): SiLU()
      (2): Linear(in_features=64, out_features=1, bias=False)
    )
    (coord_mlp_vel): Sequential(
      (0): Linear(in_features=64, out_features=64, bias=True)
      (1): SiLU()
      (2): Linear(in_features=64, out_features=1, bias=True)
    )
  )
  (gcl_9): E_GCL_vel(
    (edge_mlp): Sequential(
      (0): Linear(in_features=131, out_features=64, bias=True)
      (1): SiLU()
      (2): Linear(in_features=64, out_features=64, bias=True)
      (3): SiLU()
    )
    (node_mlp): Sequential(
      (0): Linear(in_features=128, out_features=64, bias=True)
      (1): SiLU()
      (2): Linear(in_features=64, out_features=64, bias=True)
    )
    (coord_mlp): Sequential(
      (0): Linear(in_features=64, out_features=64, bias=True)
      (1): SiLU()
      (2): Linear(in_features=64, out_features=1, bias=False)
    )
    (coord_mlp_vel): Sequential(
      (0): Linear(in_features=64, out_features=64, bias=True)
      (1): SiLU()
      (2): Linear(in_features=64, out_features=1, bias=True)
    )
  )
  (gcl_10): E_GCL_vel(
    (edge_mlp): Sequential(
      (0): Linear(in_features=131, out_features=64, bias=True)
      (1): SiLU()
      (2): Linear(in_features=64, out_features=64, bias=True)
      (3): SiLU()
    )
    (node_mlp): Sequential(
      (0): Linear(in_features=128, out_features=64, bias=True)
      (1): SiLU()
      (2): Linear(in_features=64, out_features=64, bias=True)
    )
    (coord_mlp): Sequential(
      (0): Linear(in_features=64, out_features=64, bias=True)
      (1): SiLU()
      (2): Linear(in_features=64, out_features=1, bias=False)
    )
    (coord_mlp_vel): Sequential(
      (0): Linear(in_features=64, out_features=64, bias=True)
      (1): SiLU()
      (2): Linear(in_features=64, out_features=1, bias=True)
    )
  )
  (gcl_11): E_GCL_vel(
    (edge_mlp): Sequential(
      (0): Linear(in_features=131, out_features=64, bias=True)
      (1): SiLU()
      (2): Linear(in_features=64, out_features=64, bias=True)
      (3): SiLU()
    )
    (node_mlp): Sequential(
      (0): Linear(in_features=128, out_features=64, bias=True)
      (1): SiLU()
      (2): Linear(in_features=64, out_features=64, bias=True)
    )
    (coord_mlp): Sequential(
      (0): Linear(in_features=64, out_features=64, bias=True)
      (1): SiLU()
      (2): Linear(in_features=64, out_features=1, bias=False)
    )
    (coord_mlp_vel): Sequential(
      (0): Linear(in_features=64, out_features=64, bias=True)
      (1): SiLU()
      (2): Linear(in_features=64, out_features=1, bias=True)
    )
  )
)
train epoch 0 avg loss: 2827.68626
==> val epoch 0 avg loss: 1903.55326
==> test epoch 0 avg loss: 1575.18358
*** Best Val Loss: 1903.55326 	 Best Test Loss: 1575.18358 	 Best epoch 0
train epoch 1 avg loss: 67.36534
train epoch 2 avg loss: 6.42556
train epoch 3 avg loss: 1.40401
train epoch 4 avg loss: 0.73094
train epoch 5 avg loss: 0.47288
==> val epoch 5 avg loss: 0.47828
…
